…
为一篇关于环境问题的文章写一个标题。,你正在为环境杂志写一篇文章，关于现代生活对环境的影响，以及需要采取的步骤来保护我们的星球。,"""保护地球，从现代生活的环境问题开始"""
请求数组的所有元素之和。,"以下是给定数组的元素：[1, 2, 3, 4, 5, 6, 7, 8, 9, 10]","解：

可以使用循环遍历数组，将每个元素累加到一个变量中，最后返回累加变量的值即可。

以下是使用 Python 语言实现的代码：

```python
arr = [1, 2, 3, 4, 5, 6, 7, 8, 9, 10]
sum = 0
for i in arr:
    sum += i
print(sum)
```

代码输出的结果为：

```
55
```

说明数组中所有元素之和为 55。"
提供一个关于2022年世界杯足球赛的数据集，包括参赛队伍和历史上的获奖者。,世界杯足球赛是足球迷们最喜欢的赛事之一。为了预测和分析即将到来的2022年赛季，我们需要一份含有参赛队伍和历史获奖者的数据集。,"以下是一个简单的数据集示例，其中包括参赛队伍的国家名称、世界排名、历史参赛次数、表演记录和历史上的获奖者。

国家名称 | 世界排名 | 历史参赛次数 | 最好表演 | 上次获奖
--------|--------|--------|--------|--------
巴西 | 3 | 21 | 冠军 (1958, 1962, 1970, 1994, 2002) | 2002
阿根廷 | 9 | 17 | 冠军 (1978, 1986) | 1986
德国 | 15 | 19 | 冠军 (1954, 1974, 1990, 2014) | 2014
意大利 | 10 | 18 | 冠军 (1934, 1938, 1982, 2006) | 2006
法国 | 2 | 15 | 冠军 (1998, 2018) | 2018
西班牙 | 6 | 15 | 冠军 (2010) | 2010
英格兰 | 4 | 15 | 冠军 (1966) | 1966
荷兰 | 14 | 10 | 亚军 (1974, 1978, 2010) | N/A
乌拉圭 | 7 | 13 | 冠军 (1930, 1950) | 1950
葡萄牙 | 8 | 7 | 冠军 (2016) | 2016

此数据集仅包含少数参赛国家和历史获奖者，但我们可以轻松扩展它并添加更多的相关信息，例如每个团队的数据统计、球员数据、比赛时间表、成就记录等等。所有这些信息将有助于预测和分析2022年世界杯足球赛的结果。"
重写下面的句子，将它们变成关于学习的命令。,"1) 我们应该好好学习。 
2) 我需要更多的知识。 
3) 学习可以让你变得更聪明。","1) 好好学习吧。
2) 多学点知识。
3) 学习让你变得更聪明。"
根据给定的语法生成一个句子。,语法：S -> NP VP,"一种可能的句子是： 

The cat chased the mouse. 

其中，NP是the cat, VP是chased the mouse."
"为以下两组数据中的一组选择一个最佳的图表类型并解释原因。

数据组1：
家庭收入分布
20,000以下：25%的家庭
…
model.add(Conv2D(32, kernel_size=(3, 3), activation='relu', input_shape=input_shape))
model.add(MaxPooling2D(pool_size=(2, 2)))
model.add(Conv2D(64, kernel_size=(3, 3), activation='relu'))
model.add(MaxPooling2D(pool_size=(2, 2)))
model.add(Dropout(0.25))
model.add(Flatten())
model.add(Dense(128, activation='relu'))
model.add(Dropout(0.5))
model.add(Dense(num_classes, activation='softmax'))

model.summary()
```

这将生成以下模型摘要：

```
Model: ""sequential""
_________________________________________________________________
Layer (type)                 Output Shape              Param #   
=================================================================
conv2d (Conv2D)              (None, 26, 26, 32)        320       
_________________________________________________________________
max_pooling2d (MaxPooling2D) (None, 13, 13, 32)        0         
_________________________________________________________________
conv2d_1 (Conv2D)            (None, 11, 11, 64)        18496     
_________________________________________________________________
max_pooling2d_1 (MaxPooling2 (None, 5, 5, 64)          0         
_________________________________________________________________
dropout (Dropout)            (None, 5, 5, 64)          0         
_________________________________________________________________
flatten (Flatten)            (None, 1600)              0         
_________________________________________________________________
dense (Dense)                (None, 128)               204928    
_________________________________________________________________
dropout_1 (Dropout)          (None, 128)               0         
_________________________________________________________________
dense_1 (Dense)              (None, 10)                1290      
=================================================================
Total params: 225,034
Trainable params: 225,034
Non-trainable params: 0
_________________________________________________________________
```

## 4. 训练模型

现在我们已经定义了模型，我们可以编译它并训练它：

```python
model.compile(loss='categorical_crossentropy', optimizer='adam', metrics=['accuracy'])

batch_size = 128
epochs = 10

history = model.fit(x_train, y_train, batch_size=batch_size, epochs=epochs, verbose=1, validation_data=(x_test, y_test))
…
